…
od=-1, save_txt=False, scale=0.5, seed=0, shear=0.0, show=False, show_boxes=True, show_conf=True, show_labels=True, simplify=True, single_cls=False, source=None, split=val, stream_buffer=False, task=detect, time=None, tracker=botsort.yaml, translate=0.1, val=True, verbose=True, vid_stride=1, visualize=False, warmup_bias_lr=0.1, warmup_epochs=3.0, warmup_momentum=0.8, weight_decay=0.0005, workers=4, workspace=None
Overriding model.yaml nc=80 with nc=53

                   from  n    params  module                                       arguments
  0                  -1  1       928  ultralytics.nn.modules.conv.Conv             [3, 32, 3, 2]
  1                  -1  1     18560  ultralytics.nn.modules.conv.Conv             [32, 64, 3, 2]
  2                  -1  1     29056  ultralytics.nn.modules.block.C2f             [64, 64, 1, True]
  3                  -1  1     73984  ultralytics.nn.modules.conv.Conv             [64, 128, 3, 2]
  4                  -1  2    197632  ultralytics.nn.modules.block.C2f             [128, 128, 2, True]
  5                  -1  1    295424  ultralytics.nn.modules.conv.Conv             [128, 256, 3, 2]
  6                  -1  2    788480  ultralytics.nn.modules.block.C2f             [256, 256, 2, True]
  7                  -1  1   1180672  ultralytics.nn.modules.conv.Conv             [256, 512, 3, 2]
  8                  -1  1   1838080  ultralytics.nn.modules.block.C2f             [512, 512, 1, True]
  9                  -1  1    656896  ultralytics.nn.modules.block.SPPF            [512, 512, 5]
 10                  -1  1         0  torch.nn.modules.upsampling.Upsample         [None, 2, 'nearest']
 11             [-1, 6]  1         0  ultralytics.nn.modules.conv.Concat           [1]
 12                  -1  1    837508  ultralytics.nn.modules.block.C2fAttn         [768, 256, 1, 128, 4]
 13                  -1  1         0  torch.nn.modules.upsampling.Upsample         [None, 2, 'nearest']
 14             [-1, 4]  1         0  ultralytics.nn.modules.conv.Concat           [1]
 15                  -1  1    226242  ultralytics.nn.modules.block.C2fAttn         [384, 128, 1, 64, 2]
 16                  15  1    147712  ultralytics.nn.modules.conv.Conv             [128, 128, 3, 2]
 17            [-1, 12]  1         0  ultralytics.nn.modules.conv.Concat           [1]
 18                  -1  1    739204  ultralytics.nn.modules.block.C2fAttn         [384, 256, 1, 128, 4]
 19                  -1  1    590336  ultralytics.nn.modules.conv.Conv             [256, 256, 3, 2]
 20             [-1, 9]  1         0  ultralytics.nn.modules.conv.Concat           [1]
 21                  -1  1   2821896  ultralytics.nn.modules.block.C2fAttn         [768, 512, 1, 256, 8]
 22        [15, 18, 21]  1   2317270  ultralytics.nn.modules.head.WorldDetect      [53, 512, True, 16, None, [128, 256, 512]]
YOLOv8s-worldv2 summary: 149 layers, 12,759,880 parameters, 12,759,864 gradients, 44.6 GFLOPs

Transferred 409/412 items from pretrained weights
Freezing layer 'model.22.dfl.conv.weight'
train: Fast image access ✅ (ping: 0.0±0.0 ms, read: 353.5±180.3 MB/s, size: 141.1 KB)
train: Scanning /Users/chandrahass/PycharmProjects/SashaInnoworks/yolo_final/labels/train... 2343 images, 9 backgrounds, 0 corrupt: 100% ━━━━━━━━━━━━ 2343/2343 4.7Kit/s 0.5s
…
